Running 3_3.py
Files already downloaded and verified
optimizerStr Adam lr 0.1
============================================================================================================================================
Layer (type:depth-idx)                   Input Shape               Output Shape              Param #                   Mult-Adds
============================================================================================================================================
CNN                                      [1, 3, 32, 32]            [1, 10]                   --                        --
├─Conv2d: 1-1                            [1, 3, 32, 32]            [1, 32, 30, 30]           896                       806,400
├─Conv2d: 1-2                            [1, 32, 30, 30]           [1, 64, 14, 14]           18,496                    3,625,216
├─Conv2d: 1-3                            [1, 64, 14, 14]           [1, 128, 12, 12]          73,856                    10,635,264
├─Linear: 1-4                            [1, 18432]                [1, 128]                  2,359,424                 2,359,424
├─Linear: 1-5                            [1, 128]                  [1, 10]                   1,290                     1,290
============================================================================================================================================
Total params: 2,453,962
Trainable params: 2,453,962
Non-trainable params: 0
Total mult-adds (M): 17.43
============================================================================================================================================
…
